models/tabnet_model.pt (torch, 80747 bytes, 112 tensors)

tabnet.initial_bn.weight f4 [13]
1.0 1.0 1.0 1.0 1.0 1.0 1.0 1.0
1.0 1.0 1.0 1.0 1.0
00000000: 0000 803f 0000 803f 0000 803f 0000 803f
00000010: 0000 803f 0000 803f 0000 803f 0000 803f
00000020: 0000 803f 0000 803f 0000 803f 0000 803f
00000030: 0000 803f

tabnet.initial_bn.bias f4 [13]
0.0 0.0 0.0 0.0 0.0 0.0 0.0 0.0
0.0 0.0 0.0 0.0 0.0
00000000: 0000 0000 0000 0000 0000 0000 0000 0000
00000010: 0000 0000 0000 0000 0000 0000 0000 0000
00000020: 0000 0000 0000 0000 0000 0000 0000 0000
00000030: 0000 0000

tabnet.initial_bn.running_mean f4 [13]
0.0 0.0 0.0 0.0 0.0 0.0 0.0 0.0
0.0 0.0 0.0 0.0 0.0
00000000: 0000 0000 0000 0000 0000 0000 0000 0000
00000010: 0000 0000 0000 0000 0000 0000 0000 0000
00000020: 0000 0000 0000 0000 0000 0000 0000 0000
00000030: 0000 0000

tabnet.initial_bn.running_var f4 [13]
1.0 1.0 1.0 1.0 1.0 1.0 1.0 1.0
1.0 1.0 1.0 1.0 1.0
00000000: 0000 803f 0000 803f 0000 803f 0000 803f
00000010: 0000 803f 0000 803f 0000 803f 0000 803f
00000020: 0000 803f 0000 803f 0000 803f 0000 803f
00000030: 0000 803f

tabnet.encoder.initial_bn.weight f4 [13]
1.434797 2.4399016 0.55353427 2.2677803 2.8716223 1.0269918 2.7636735 1.035022
-0.10053347 1.874646 0.2135944 1.3543954 1.3445315
00000000: 6ea7 b73f 5927 1c40 6cb4 0d3f 5023 1140
00000010: a9c8 3740 7874 833f 07e0 3040 9a7b 843f
00000020: 7ee4 cdbd 66f4 ef3f 7eb8 5a3e d45c ad3f
00000030: 9c19 ac3f

tabnet.encoder.initial_bn.bias f4 [13]
-0.53157556 -1.1964252 -0.27223706 -0.048046526 1.9822857 -0.38202158 0.8317277 -0.07739297
-4.4813437 -1.6574744 -2.8751712 -0.2581204 0.103414536
00000000: 5615 08bf 7624 99bf a862 8bbe 6fcc 44bd
00000010: 8abb fd3f 5598 c3be 1bec 543f 3580 9ebd
00000020: 2b67 8fc0 1f28 d4bf ce02 38c0 5b28 84be
00000030: 00cb d33d

tabnet.encoder.initial_bn.running_mean f4 [13]
0.00030212995 0.0030517678 -0.005231245 -0.0058844145 0.0020623023 -0.004300362 0.0023899702 0.002196483
0.0025953841 -0.0031916643 3.7607184e-05 0.0011991767 -0.0011991767
00000000: 3267 9e39 2b00 483b dd6a abbb 0cd2 c0bb
00000010: b127 073b 0dea 8cbb 0ca1 1c3b dff2 0f3b
00000020: 5217 2a3b 3e2b 51bb 68bc 1d38 b12d 9d3a
00000030: b12d 9dba

tabnet.encoder.initial_bn.running_var f4 [13]
0.9972574 1.0016832 1.0032287 0.99882966 1.0059581 1.0042119 1.0000006 1.0024203
0.9992559 0.9956625 0.99970573 1.0002906 1.0002906
00000000: 434c 7f3f 2837 803f cc69 803f 4db3 7f3f
00000010: 3cc3 803f 048a 803f 0500 803f 4f4f 803f
00000020: 3ccf 7f3f bde3 7e3f b7ec 7f3f 8609 803f
00000030: 8609 803f

tabnet.encoder.initial_splitter.shared.shared_layers.0.weight f4 [32, 13]
-0.97436154 -4.9090643 -0.6182255 1.7903472 0.65166646 -1.6548467 1.0002844 -2.371682
2.0297961 1.7821418 0.8485013 0.4530121 0.26568097 0.61315936 -0.055875085 -1.2443082
-0.6135829 -1.0245055 1.5176319 1.1612059 -0.8517459 -2.5463774 -0.4954993 -0.9537247
-2.3992965 3.5570624 -1.1420724 0.6246607 -0.05040735 -2.1075425 -1.7146262 -3.5039783
0.37798575 -0.30894682 0.743281 3.5959325 0.444503 -0.11260993 -1.1779685 -0.9181158
-3.2910414 1.6949506 -0.9884263 0.9706903 3.601276 -0.05610761 1.283498 2.2287538
0.09636262 2.7398453 0.61164266 -0.3349002 1.8055296 0.2432445 -1.7282321 -3.3835552
-1.1530972 -1.1149638 1.3551863 0.0014103441 -1.9954958 -0.15607157 4.2901096 0.7198447
-1.2734766 -0.97432965 -0.015302194 1.6572398 1.427229 -1.6673971 -1.0774467 1.742037
0.7534148 6.1711006 -0.5635063 0.1287683 -2.2709756 1.5356107 -1.0058991 0.5628981
-0.46663994 1.6294318 2.0142627 -1.2151912 0.9166729 2.309027 -2.7341301 0.47363576
5.0986266 2.6492512 -1.6911997 -1.4201303 -1.9528868 -1.0896461 1.2145454 -4.278026
0.639655 -0.2806773 -0.6007131 -0.099267595 -0.63500285 0.19456215 0.65531415 -0.13729738
-0.89026535 -1.32053 0.9152894 -2.428437 -0.7951132 -1.0835218 -1.0763032 2.846335
-0.93748957 -0.39035875 -0.37210596 -2.2041183 0.3489483 1.8102462 1.429177 0.7276256
0.12517303 2.1658177 0.46703026 1.1419994 -1.4120314 -1.1824142 -3.7503088 -0.32913145
-0.17870632 3.5494962 -0.84113127 -2.2226562 -1.3976189 0.5224277 -0.48495117 -0.37294078
2.0231838 2.134375 -1.6503172 -1.7587367 -0.5794447 0.7636852 -0.578718 -0.71129364
0.6400177 -0.045771886 0.14308192 2.0171235 -0.28946343 7.128953 -0.60754824 1.6020395
0.23938808 0.27746138 -0.6583267 0.28120458 -1.0634072 -0.2906568 1.9621536 -2.2112513
-2.646715 -0.60193205 1.462301 -1.4692218 0.07170641 -3.0568068 -0.24624048 -2.3088448
2.5918512 2.596775 1.0800971 0.3130246 -1.9690814 -5.1393824 1.1998962 -0.36503384
0.85217154 0.0620837 0.93174595 -1.6669389 0.7864532 -0.7494029 -0.9818933 0.13693798
-0.27350467 -0.9122952 0.64420986 -1.2976534 -1.5336895 4.085919 -2.5432882 -1.5760963
-0.6231111 4.8374314 0.3122019 2.4082983 -5.568987 1.5935518 0.503148 0.5943858
0.0012926317 -0.32482874 0.067196324 1.1346854 0.094531976 -1.9627402 -1.3899775 2.0728452
-0.62197113 -3.2081146 1.9905865 2.4824195 1.4213253 -0.4541528 -1.2835146 -1.1710213
-0.7488729 -1.9366972 -0.198617 -0.26782456 1.2017039 0.41350302 -1.3846347 0.1673718
0.19581044 -0.904706 -4.4463506 -2.3259747 -0.8546669 -1.5766342 1.013885 2.9762638
1.4691392 -0.5587345 -1.9718882 -5.413105 -3.1261694 -1.1925863 -0.39137572 1.5333704
0.52737886 2.8231633 -0.4184404 0.14434867 -1.1280552 0.48332927 -0.14590341 -1.5923032
-2.4297967 -0.62707597 0.19349957 0.45798 2.3213918 2.3810797 -1.0233748 -1.37168
00000000: c26f 79bf 0e17 9dc0 0744 1ebf 192a e53f
00000010: 9dd3 263f 04d2 d3bf 5209 803f a3c9 17c0
00000020: 2ee8 0140 391d e43f 6237 593f 34f1 e73e
00000030: 5607 883e 03f8 1c3f 46dd 64bd 7e45 9fbf
00000040: c513 1dbf ff22 83bf c341 c23f 65a2 943f
00000050: 050c 5abf d9f7 22c0 16b2 fdbe 4d27 74bf
00000060: 138e 19c0 e9a6 6340 6e2f 92bf c3e9 1f3f
00000070: f077 4ebd fae1 06c0 df78 dbbf 2e41 60c0
00000080: 5987 c13e 472e 9ebe aa47 3e3f c223 6640
00000090: e695 e33e 09a0 e6bd acc7 96bf a309 6bbf
000000a0: 6ca0 52c0 24f4 d83f 8209 7dbf 297f 783f
000000b0: 4e7b 6640 18d1 65bd aa49 a43f e7a3 0e40
000000c0: c459 c53d a059 2f40 9d94 1c3f 0a78 abbe
000000d0: 981b e73f 1615 793e b636 ddbf 2b8c 58c0
000000e0: b098 93bf 22b7 8ebf bf76 ad3f 4cdb b83a
000000f0: 686c ffbf 3ad1 1fbe 9448 8940 be47 383f
00000100: 4801 a3bf ab6d 79bf 0eb6 7abc 6f20 d43f
00000110: 71af b63f 456d d5bf c6e9 89bf 12fb de3f
00000120: cbdf 403f a879 c540 f341 10bf d6db 033e
00000130: aa57 11c0 e48e c43f 4dc1 80bf 171a 103f
00000140: 6eeb eebe 3991 d03f aee9 0040 638b 9bbf
00000150: 13ab 6a3f 19c7 1340 fdfb 2ec0 6380 f23e
00000160: f327 a340 558d 2940 3b79 d8bf d4c6 b5bf
00000170: 32f8 f9bf 8679 8bbf 3976 9b3f 97e5 88c0
00000180: 6ec0 233f efb4 8fbe 55c8 19bf cf4c cbbd
00000190: 8c8f 22bf 4d3b 473e abc2 273f af97 0cbe
000001a0: 6ee8 63bf 2107 a9bf 6850 6a3f 836b 1bc0
000001b0: 8a8c 4bbf d8b0 8abf 4ec4 89bf 5a2a 3640
000001c0: 51ff 6fbf 1add c7be ac84 bebe 4610 0dc0
000001d0: 5aa9 b23e 26b6 e73f 46ef b63f ac45 3a3f
000001e0: 5c2d 003e c29c 0a40 971e ef3e 092d 923f
000001f0: 72bd b4bf 5959 97bf 0f05 70c0 eb83 a8be
00000200: cafe 36be f22a 6340 6154 57bf 0040 0ec0
00000210: 2de5 b2bf d2bd 053f 854b f8be 18f2 bebe
00000220: d87b 0140 9a99 0840 983d d3bf 491e e1bf
00000230: 7d56 14bf e080 433f dd26 14bf 5717 36bf
00000240: 33d8 233f 4d7b 3bbd 1184 123e 8d18 0140
00000250: 8d34 94be 6220 e440 4888 1bbf a10f cd3f
00000260: 2622 753e 6b0f 8e3e 1988 28bf 0cfa 8f3e
00000270: ba1d 88bf f8d0 94be d927 fb3f 2485 0dc0
00000280: c763 29c0 3818 1abf ae2c bb3f 760f bcbf
00000290: cfda 923d b9a2 43c0 7726 7cbe 1dc4 13c0
000002a0: e4e0 2540 9031 2640 9f40 8a3f c344 a03e
000002b0: dc0a fcbf d275 a4c0 3396 993f b7e5 babe
000002c0: ea27 5a3f 7a4b 7e3d e786 6e3f 415e d5bf
000002d0: ff54 493f ded8 3fbf 5c5d 7bbf 7839 0c3e
000002e0: ce08 8cbe 2e8c 69bf f0ea 243f 8219 a6bf
000002f0: f04f c4bf d9bf 8240 3cc5 22c0 86bd c9bf
00000300: 3684 1fbf 3dcc 9a40 edd8 9f3e 8f21 1a40
00000310: 2435 b2c0 81f9 cb3f 4fce 003f ab29 183f
00000320: 866d a93a f44f a6be 3a9e 893d 5f3d 913f
00000330: fb99 c13d 123b fbbf c8ea b1bf 7fa9 0440
00000340: 8039 1fbf c051 4dc0 8acb fe3f f6df 1e40
00000350: fded b53f b786 e8be 354a a4bf 07e4 95bf
00000360: 22b6 3fbf b2e5 f7bf 4162 4bbe 4d20 89be
00000370: 6fd1 993f abb6 d33e b63b b1bf 8363 2b3e
00000380: 8882 483e d09a 67bf 8148 8ec0 c5dc 14c0
00000390: 73cb 5abf 26cf c9bf fcc6 813f 1b7b 3e40
000003a0: c10c bc3f 3909 0fbf d566 fcbf 2838 adc0
000003b0: 2913 48c0 aba6 98bf 6662 c8be 7b45 c43f
000003c0: 4d02 073f b5ae 3440 d23d d6be 23d0 133e
000003d0: 1d64 90bf ef76 f73e b467 15be 97d0 cbbf
000003e0: ca81 1bc0 0d88 20bf c024 463e 5b7c ea3e
000003f0: af91 1440 9c63 1840 f2fd 82bf 3693 afbf

tabnet.encoder.initial_splitter.shared.shared_layers.1.weight f4 [32, 16]
-1.2756565 -1.7125052 -0.68623126 -0.4627789 -0.16740233 0.37460697 -2.225947 0.60257655
2.086312 -2.7867582 0.7075395 -1.7447629 0.9327009 2.7854908 2.767363 0.99524045
-1.5081686 -1.8854592 0.073357366 0.42006725 -1.2141676 -3.851866 -0.68211836 -0.72321624
0.036469955 2.1648405 -0.2669762 1.5451477 0.25428268 -1.5767869 2.509221 0.5878455
2.595483 0.23768657 -1.7827857 0.44424477 -2.9214065 0.02669679 0.66702926 -1.3290998
-0.20259327 -0.08905369 0.3682522 1.1357787 -1.6986893 -3.0473707 -0.186608 2.4368641
-1.7654978 -1.5737432 0.22650836 -1.5046583 1.4222435 2.8093414 2.0403523 -0.91348493
0.3897347 2.2651806 -2.128487 2.7526672 0.019258108 -1.2906147 -0.03576309 0.088683635
0.888408 -0.053773355 1.1259679 2.709165 -0.8761517 0.84292936 0.30077663 -1.3267555
-0.13312164 -0.8839051 2.196046 1.5471818 0.74248385 -2.7951324 -0.30088174 -0.9266241
-0.4736194 1.8562986 -4.799541 1.5477952 -0.4267528 -1.2818303 -1.1286948 1.8797449
-0.10175218 2.1420617 0.71734375 0.1469369 1.1769197 -0.5953955 1.3130702 2.2333727
-0.9186136 0.96285295 0.70102936 -2.5192611 1.7611914 -1.9148339 -2.5537655 2.6228573
0.25632632 1.5407078 0.16285807 -1.4457477 0.6558351 0.8570016 2.1011217 -3.9949594
0.51112306 1.4986145 -0.66196966 -1.223502 -1.9709985 0.06891186 -1.012609 1.0278703
0.93072534 0.924721 -0.0770806 -3.1503751 -1.1298842 2.226278 0.63818395 -0.18948738
0.22491841 0.8754859 2.0343235 -0.34678447 -0.77887565 2.4341466 -2.6101868 1.0409988
-2.2499948 -2.3804698 -0.83545655 -0.40070006 1.238622 2.7510848 -0.6269222 3.562968
1.161358 -0.6580057 -1.5676422 -0.74147624 -0.8116109 -1.4199561 1.7407168 -1.6861117
-0.5427247 -0.791014 2.2872267 3.0320592 1.654012 -1.0621684 1.8534342 -0.38681826
0.27712333 0.1472927 0.48787722 0.80178267 1.5369024 -3.9318767 -0.047334045 -1.5895928
1.4009907 0.19926986 -1.3260087 -0.6423718 -0.31158653 -1.0305895 2.4110806 -0.6690201
0.27248266 3.6469283 -0.45787245 -2.21865 -1.7652375 -0.987854 -0.16387756 -0.31539592
-1.4844483 0.7600932 1.4085904 3.4592812 1.9959695 -0.6523631 -1.5006669 -0.4903164
-0.8836786 0.6712093 -1.9019127 0.3478993 -3.7759438 1.4093456 -1.2243549 1.6859055
2.3980412 1.7060783 -1.0946242 -1.3176721 -0.030703986 -0.9204967 -1.818518 -0.3456138
5.0516343 -1.8166333 0.0688158 0.19177328 0.87266237 -2.2293425 1.1013163 2.2044551
-3.056695 0.8020032 0.8587402 0.64849436 -0.5709224 -2.111701 1.9314933 -0.3617209
-1.1013618 -1.2488705 -1.9599189 2.9461555 1.1685611 0.8487286 0.026349112 2.09793
2.778993 -3.6218817 -1.1878877 -1.7038518 0.14538057 -0.17181693 0.8913249 1.6573465
-1.0942172 2.8097863 0.5526325 -0.39283633 -0.41895553 -2.908292 -1.6446441 1.4236685
0.09546032 0.68442595 0.63992923 2.5754397 1.2952938 3.2107728 -1.1297312 0.19676286
00000000: b648 a3bf 5f33 dbbf daac 2fbf 5bf1 ecbe
00000010: 846b 2bbe 7ccc bf3e ea75 0ec0 7542 1a3f
00000020: 2386 0540 3f5a 32c0 4f21 353f 6454 dfbf
00000030: 7cc5 6e3f 7b45 3240 7a1c 3140 14c8 7e3f
00000040: ab0b c1bf ba56 f1bf 633c 963d 0e13 d73e
00000050: d869 9bbf f984 76c0 4f9f 2ebf b324 39bf
00000060: 8561 153d bf8c 0a40 1bb1 88be 66c7 c53f
00000070: 5731 823e 27d4 c9bf 1497 2040 0b7d 163f
00000080: 651c 2640 1c64 733e 5232 e4bf 0d74 e33e
00000090: 53f8 3ac0 3ab3 da3c 6ec2 2a3f f11f aabf
000000a0: 9c74 4fbe c861 b6bd 8d8b bc3e 3261 913f
000000b0: a76e d9bf 1f08 43c0 2b16 3fbe 95f5 1b40
000000c0: d5fb e1bf 6b70 c9bf cff1 673e a598 c0bf
000000d0: 130c b63f 40cc 3340 2295 0240 26da 69bf
000000e0: 4e8b c73e b8f8 1040 2239 08c0 b32b 3040
000000f0: 2ec3 9d3c dd32 a5bf 517c 12bd c49f b53d
00000100: b56e 633f 7341 5cbd b71f 903f f662 2d40
00000110: 7a4b 60bf 38ca 573f 65ff 993e 20d3 a9bf
00000120: 0a51 08be 9b47 62bf 058c 0c40 0e0a c63f
00000130: 6c13 3e3f 73e3 32c0 2c0d 9abe 3d37 6dbf
00000140: 3e7e f2be 319b ed3f d795 99c0 271e c63f
00000150: 587f dabe 0413 a4bf 1279 90bf 7b9b f03f
00000160: 7263 d0bd 8a17 0940 d7a3 373f a076 163e
00000170: 4ea5 963f d76b 18bf af12 a83f 94ef 0e40
00000180: 432a 6bbf 887d 763f a976 333f 933b 21c0
00000190: b86e e13f 4719 f5bf e570 23c0 e5dc 2740
000001a0: 343d 833e ea35 c53f 44c4 263e 430e b9bf
000001b0: cfe4 273f 7564 5b3f c778 0640 6aad 7fc0
000001c0: f6d8 023f 9ad2 bf3f d876 29bf b79b 9cbf
000001d0: ae49 fcbf a921 8d3d 2c9d 81bf 4191 833f
000001e0: 0444 6e3f 84ba 6c3f 6fdc 9dbd bf9f 49c0
000001f0: 0ca0 90bf 577b 0e40 0660 233f fb08 42be
00000200: 0351 663e d81f 603f 5b32 0240 bc8d b1be
00000210: 6564 47bf 0fc9 1b40 4d0d 27c0 733f 853f
00000220: eaff 0fc0 9e59 18c0 7be0 55bf 8f28 cdbe
00000230: 2a8b 9e3f c611 3040 f97d 20bf ab07 6440
00000240: 61a7 943f 1073 28bf 80a8 c8bf 63d1 3dbf
00000250: bbc5 4fbf 1fc1 b5bf cfcf de3f 82d2 d7bf
00000260: 02f0 0abf e57f 4abf ec61 1240 420d 4240
00000270: aab6 d33f 22f5 87bf 553d ed3f 0b0d c6be
00000280: 1ce3 8d3e e6d3 163e 0bcb f93e a141 4d3f
00000290: 38b9 c43f dea3 7bc0 58e1 41bd c777 cbbf
000002a0: aa53 b33f 660d 4c3e a7ba a9bf 7a72 24bf
000002b0: 4588 9fbe 5bea 83bf 254f 1a40 e744 2bbf
000002c0: d982 8b3e 4667 6940 426e eabe 5dfe 0dc0
000002d0: 4df3 e1bf 00e4 7cbf 85cf 27be 937b a1be
000002e0: 6702 bebf 7895 423f b14c b43f dd64 5d40
000002f0: ee7b ff3f 4501 27bf da15 c0bf c00a fbbe
00000300: c338 62bf 5fd4 2b3f e071 f3bf db1f b23e
00000310: 10a9 71c0 7065 b43f a9b7 9cbf c0cb d73f
00000320: 8279 1940 c660 da3f a51c 8cbf 7ba9 a8bf
00000330: ed86 fbbc aca5 6bbf 33c5 e8bf 4bf4 b0be
00000340: fda6 a140 7187 e8bf 4cef 8c3d 3760 443e
00000350: cd66 5f3f 8cad 0ec0 eff7 8c3f cb15 0d40
00000360: e4a0 43c0 1550 4d3f 66d6 5b3f ba03 263f
00000370: f827 12bf 1c26 07c0 2c3b f73f 7b33 b9be
00000380: 6cf9 8cbf fdda 9fbf 9fde fabf d08d 3c40
00000390: 6993 953f 4746 593f 18da d73c 7c44 0640
000003a0: 05db 3140 e9cc 67c0 b40c 98bf d117 dabf
000003b0: a5de 143e c7f0 2fbe de2d 643f ee23 d43f
000003c0: 4f0f 8cbf 8ad3 3340 5379 0d3f d821 c9be
000003d0: 5781 d6be 7521 3ac0 b383 d2bf c53a b63f
000003e0: b380 c33d 8a36 2f3f 67d2 233f 01d4 2440
000003f0: 30cc a53f 4d7d 4d40 089b 90bf 347c 493e

tabnet.encoder.initial_splitter.shared.glu_layers.0.fc.weight f4 [32, 13]
-0.97436154 -4.9090643 -0.6182255 1.7903472 0.65166646 -1.6548467 1.0002844 -2.371682
2.0297961 1.7821418 0.8485013 0.4530121 0.26568097 0.61315936 -0.055875085 -1.2443082
-0.6135829 -1.0245055 1.5176319 1.1612059 -0.8517459 -2.5463774 -0.4954993 -0.9537247
-2.3992965 3.5570624 -1.1420724 0.6246607 -0.05040735 -2.1075425 -1.7146262 -3.5039783
0.37798575 -0.30894682 0.743281 3.5959325 0.444503 -0.11260993 -1.1779685 -0.9181158
-3.2910414 1.6949506 -0.9884263 0.9706903 3.601276 -0.05610761 1.283498 2.2287538
0.09636262 2.7398453 0.61164266 -0.3349002 1.8055296 0.2432445 -1.7282321 -3.3835552
-1.1530972 -1.1149638 1.3551863 0.0014103441 -1.9954958 -0.15607157 4.2901096 0.7198447
-1.2734766 -0.97432965 -0.015302194 1.6572398 1.427229 -1.6673971 -1.0774467 1.742037
0.7534148 6.1711006 -0.5635063 0.1287683 -2.2709756 1.5356107 -1.0058991 0.5628981
-0.46663994 1.6294318 2.0142627 -1.2151912 0.9166729 2.309027 -2.7341301 0.47363576
5.0986266 2.6492512 -1.6911997 -1.4201303 -1.9528868 -1.0896461 1.2145454 -4.278026
0.639655 -0.2806773 -0.6007131 -0.099267595 -0.63500285 0.19456215 0.65531415 -0.13729738
-0.89026535 -1.32053 0.9152894 -2.428437 -0.7951132 -1.0835218 -1.0763032 2.846335
-0.93748957 -0.39035875 -0.37210596 -2.2041183 0.3489483 1.8102462 1.429177 0.7276256
0.12517303 2.1658177 0.46703026 1.1419994 -1.4120314 -1.1824142 -3.7503088 -0.32913145
-0.17870632 3.5494962 -0.84113127 -2.2226562 -1.3976189 0.5224277 -0.48495117 -0.37294078
2.0231838 2.134375 -1.6503172 -1.7587367 -0.5794447 0.7636852 -0.578718 -0.71129364
0.6400177 -0.045771886 0.14308192 2.0171235 -0.28946343 7.128953 -0.60754824 1.6020395
0.23938808 0.27746138 -0.6583267 0.28120458 -1.0634072 -0.2906568 1.9621536 -2.2112513
-2.646715 -0.60193205 1.462301 -1.4692218 0.07170641 -3.0568068 -0.24624048 -2.3088448
2.5918512 2.596775 1.0800971 0.3130246 -1.9690814 -5.1393824 1.1998962 -0.36503384
0.85217154 0.0620837 0.93174595 -1.6669389 0.7864532 -0.7494029 -0.9818933 0.13693798
-0.27350467 -0.9122952 0.64420986 -1.2976534 -1.5336895 4.085919 -2.5432882 -1.5760963
-0.6231111 4.8374314 0.3122019 2.4082983 -5.568987 1.5935518 0.503148 0.5943858
0.0012926317 -0.32482874 0.067196324 1.1346854 0.094531976 -1.9627402 -1.3899775 2.0728452
-0.62197113 -3.2081146 1.9905865 2.4824195 1.4213253 -0.4541528 -1.2835146 -1.1710213
-0.7488729 -1.9366972 -0.198617 -0.26782456 1.2017039 0.41350302 -1.3846347 0.1673718
0.19581044 -0.904706 -4.4463506 -2.3259747 -0.8546669 -1.5766342 1.013885 2.9762638
1.4691392 -0.5587345 -1.9718882 -5.413105 -3.1261694 -1.1925863 -0.39137572 1.5333704
0.52737886 2.8231633 -0.4184404 0.14434867 -1.1280552 0.48332927 -0.14590341 -1.5923032
-2.4297967 -0.62707597 0.19349957 0.45798 2.3213918 2.3810797 -1.0233748 -1.37168
00000000: c26f 79bf 0e17 9dc0 0744 1ebf 192a e53f
00000010: 9dd3 263f 04d2 d3bf 5209 803f a3c9 17c0
00000020: 2ee8 0140 391d e43f 6237 593f 34f1 e73e
00000030: 5607 883e 03f8 1c3f 46dd 64bd 7e45 9fbf
00000040: c513 1dbf ff22 83bf c341 c23f 65a2 943f
00000050: 050c 5abf d9f7 22c0 16b2 fdbe 4d27 74bf
00000060: 138e 19c0 e9a6 6340 6e2f 92bf c3e9 1f3f
00000070: f077 4ebd fae1 06c0 df78 dbbf 2e41 60c0
00000080: 5987 c13e 472e 9ebe aa47 3e3f c223 6640
00000090: e695 e33e 09a0 e6bd acc7 96bf a309 6bbf
000000a0: 6ca0 52c0 24f4 d83f 8209 7dbf 297f 783f
000000b0: 4e7b 6640 18d1 65bd aa49 a43f e7a3 0e40
000000c0: c459 c53d a059 2f40 9d94 1c3f 0a78 abbe
000000d0: 981b e73f 1615 793e b636 ddbf 2b8c 58c0
000000e0: b098 93bf 22b7 8ebf bf76 ad3f 4cdb b83a
000000f0: 686c ffbf 3ad1 1fbe 9448 8940 be47 383f
00000100: 4801 a3bf ab6d 79bf 0eb6 7abc 6f20 d43f
00000110: 71af b63f 456d d5bf c6e9 89bf 12fb de3f
00000120: cbdf 403f a879 c540 f341 10bf d6db 033e
00000130: aa57 11c0 e48e c43f 4dc1 80bf 171a 103f
00000140: 6eeb eebe 3991 d03f aee9 0040 638b 9bbf
00000150: 13ab 6a3f 19c7 1340 fdfb 2ec0 6380 f23e
00000160: f327 a340 558d 2940 3b79 d8bf d4c6 b5bf
00000170: 32f8 f9bf 8679 8bbf 3976 9b3f 97e5 88c0
00000180: 6ec0 233f efb4 8fbe 55c8 19bf cf4c cbbd
00000190: 8c8f 22bf 4d3b 473e abc2 273f af97 0cbe
000001a0: 6ee8 63bf 2107 a9bf 6850 6a3f 836b 1bc0
000001b0: 8a8c 4bbf d8b0 8abf 4ec4 89bf 5a2a 3640
000001c0: 51ff 6fbf 1add c7be ac84 bebe 4610 0dc0
000001d0: 5aa9 b23e 26b6 e73f 46ef b63f ac45 3a3f
000001e0: 5c2d 003e c29c 0a40 971e ef3e 092d 923f
000001f0: 72bd b4bf 5959 97bf 0f05 70c0 eb83 a8be
00000200: cafe 36be f22a 6340 6154 57bf 0040 0ec0
00000210: 2de5 b2bf d2bd 053f 854b f8be 18f2 bebe
00000220: d87b 0140 9a99 0840 983d d3bf 491e e1bf
00000230: 7d56 14bf e080 433f dd26 14bf 5717 36bf
00000240: 33d8 233f 4d7b 3bbd 1184 123e 8d18 0140
00000250: 8d34 94be 6220 e440 4888 1bbf a10f cd3f
00000260: 2622 753e 6b0f 8e3e 1988 28bf 0cfa 8f3e
00000270: ba1d 88bf f8d0 94be d927 fb3f 2485 0dc0
00000280: c763 29c0 3818 1abf ae2c bb3f 760f bcbf
00000290: cfda 923d b9a2 43c0 7726 7cbe 1dc4 13c0
000002a0: e4e0 2540 9031 2640 9f40 8a3f c344 a03e
000002b0: dc0a fcbf d275 a4c0 3396 993f b7e5 babe
000002c0: ea27 5a3f 7a4b 7e3d e786 6e3f 415e d5bf
000002d0: ff54 493f ded8 3fbf 5c5d 7bbf 7839 0c3e
000002e0: ce08 8cbe 2e8c 69bf f0ea 243f 8219 a6bf
000002f0: f04f c4bf d9bf 8240 3cc5 22c0 86bd c9bf
00000300: 3684 1fbf 3dcc 9a40 edd8 9f3e 8f21 1a40
00000310: 2435 b2c0 81f9 cb3f 4fce 003f ab29 183f
00000320: 866d a93a f44f a6be 3a9e 893d 5f3d 913f
00000330: fb99 c13d 123b fbbf c8ea b1bf 7fa9 0440
00000340: 8039 1fbf c051 4dc0 8acb fe3f f6df 1e40
00000350: fded b53f b786 e8be 354a a4bf 07e4 95bf
00000360: 22b6 3fbf b2e5 f7bf 4162 4bbe 4d20 89be
00000370: 6fd1 993f abb6 d33e b63b b1bf 8363 2b3e
00000380: 8882 483e d09a 67bf 8148 8ec0 c5dc 14c0
00000390: 73cb 5abf 26cf c9bf fcc6 813f 1b7b 3e40
000003a0: c10c bc3f 3909 0fbf d566 fcbf 2838 adc0
000003b0: 2913 48c0 aba6 98bf 6662 c8be 7b45 c43f
000003c0: 4d02 073f b5ae 3440 d23d d6be 23d0 133e
000003d0: 1d64 90bf ef76 f73e b467 15be 97d0 cbbf
000003e0: ca81 1bc0 0d88 20bf c024 463e 5b7c ea3e
000003f0: af91 1440 9c63 1840 f2fd 82bf 3693 afbf

tabnet.encoder.initial_splitter.shared.glu_layers.0.bn.bn.weight f4 [32]
2.4904218 0.78773135 1.7690767 0.6713781 1.9482874 1.1305963 1.6913247 2.2938054
1.2976825 1.384568 1.0391934 5.95304 1.900968 3.0000954 0.3714208 2.3465734
3.8856466 -0.97930485 3.1421225 2.0694695 3.1185582 -2.718899 1.3223442 2.662553
-2.7903137 1.6030967 1.511321 4.082759 2.3124268 2.2569764 5.6383996 -1.5572687
00000000: 1263 1f40 c3a8 493f 1b71 e23f 6fdf 2b3f
00000010: 7b61 f93f 61b7 903f 547d d83f b5cd 1240
00000020: 761a a63f 8639 b13f 4a04 853f 4e7f be40
00000030: eb52 f33f 9001 4040 de2a be3e 422e 1640
00000040: 6fae 7840 b9b3 7abf 8918 4940 3072 0440
00000050: 7596 4740 7102 2ec0 9342 a93f 4567 2a40
00000060: 8094 32c0 4632 cd3f f772 c13f f6a5 8240
00000070: cdfe 1340 4d72 1040 c56d b440 9554 c7bf

tabnet.encoder.initial_splitter.shared.glu_layers.0.bn.bn.bias f4 [32]
-0.69290406 0.23482168 -1.7669345 1.1018852 0.32971737 -1.529764 -0.6566128 -0.08544385
0.77040994 -0.39258254 -0.39861608 0.09476598 -0.25639114 0.9161034 4.01175 0.32795164
0.31013 -2.0108078 0.21290214 0.25189286 -0.92997354 -0.44203755 1.9840553 0.9277158
-0.7405374 0.31812605 -1.8086952 2.7970922 0.66031307 1.0589218 0.9671301 1.5243875
00000000: 2962 31bf 1875 703e e92a e2bf 930a 8d3f
00000010: b7d0 a83e 4fcf c3bf c717 28bf 2ffd aebd
00000020: 9639 453f 9400 c9be 6817 ccbe ab14 c23d
00000030: b345 83be c185 6a3f 4260 8040 47e9 a73e
00000040: 5cc9 9e3e 13b1 00c0 0503 5a3e 1af8 803e
00000050: bf12 6ebf bf52 e2be 86f5 fd3f c87e 6d3f
00000060: dc93 3dbf 6be1 a23e 5383 e7bf 8f03 3340
00000070: 470a 293f c08a 873f d795 773f 211f c33f

tabnet.encoder.initial_splitter.shared.glu_layers.0.bn.bn.running_mean f4 [32]
-4.8610415 14.287305 -12.349474 -13.83375 -5.045303 -27.194948 0.991853 -5.0719194
6.137386 15.036099 15.709313 1.8447167 3.1439297 -11.040426 14.937269 7.0322886
12.636222 -4.4706087 11.884723 8.854888 17.567394 8.567575 5.160327 2.929988
-11.992599 -4.2544575 9.092208 22.515932 14.748741 -6.1165223 -11.897813 8.659779
00000000: a78d 9bc0 cd98 6441 7297 45c1 0a57 5dc1
00000010: 1f73 a1c0 418f d9c1 14ea 7d3f 2a4d a2c0
00000020: 7765 c440 dd93 7041 5959 7b41 ad1f ec3f
00000030: 2536 4940 96a5 30c1 0eff 6e41 8208 e140
00000040: f72d 4a41 3a0f 8fc0 d327 3e41 9fad 0d41
00000050: 068a 8c41 ca14 0941 6621 a540 ec84 3b40
00000060: afe1 3fc1 8424 88c0 af79 1141 a120 b441
00000070: d8fa 6b41 8dba c3c0 715d 3ec1 748e 0a41

tabnet.encoder.initial_splitter.shared.glu_layers.0.bn.bn.running_var f4 [32]
190.34537 87.89072 73.174515 109.53774 84.07108 93.74131 84.82039 194.27943
78.15219 149.24843 81.47652 448.28873 183.74225 228.23912 100.92364 229.6952
112.954124 97.4485 206.86928 103.31323 124.38773 175.90941 113.42463 138.05077
115.09442 132.3657 110.94383 140.96118 153.54758 172.25998 79.53189 107.44351
00000000: 6a58 3e43 0cc8 af42 5a59 9242 5313 db42
00000010: 6524 a842 8d7b bb42 0aa4 a942 8947 4243
00000020: ec4d 9c42 993f 1543 faf3 a242 f524 e043
00000030: 04be 3743 373d 6443 e7d8 c942 f9b1 6543
00000040: 83e8 e142 a2e5 c242 89de 4e43 60a0 ce42
00000050: 85c6 f842 cfe8 2f43 69d9 e242 ff0c 0a43
00000060: 5830 e642 9f5d 0443 3ee3 dd42 10f6 0c43
00000070: 2e8c 1943 8e42 2c43 5410 9f42 14e3 d642

tabnet.encoder.initial_splitter.shared.glu_layers.1.fc.weight f4 [32, 16]
-1.2756565 -1.7125052 -0.68623126 -0.4627789 -0.16740233 0.37460697 -2.225947 0.60257655
2.086312 -2.7867582 0.7075395 -1.7447629 0.9327009 2.7854908 2.767363 0.99524045
-1.5081686 -1.8854592 0.073357366 0.42006725 -1.2141676 -3.851866 -0.68211836 -0.72321624
0.036469955 2.1648405 -0.2669762 1.5451477 0.25428268 -1.5767869 2.509221 0.5878455
2.595483 0.23768657 -1.7827857 0.44424477 -2.9214065 0.02669679 0.66702926 -1.3290998
-0.20259327 -0.08905369 0.3682522 1.1357787 -1.6986893 -3.0473707 -0.186608 2.4368641
-1.7654978 -1.5737432 0.22650836 -1.5046583 1.4222435 2.8093414 2.0403523 -0.91348493
0.3897347 2.2651806 -2.128487 2.7526672 0.019258108 -1.2906147 -0.03576309 0.088683635
0.888408 -0.053773355 1.1259679 2.709165 -0.8761517 0.84292936 0.30077663 -1.3267555
-0.13312164 -0.8839051 2.196046 1.5471818 0.74248385 -2.7951324 -0.30088174 -0.9266241
-0.4736194 1.8562986 -4.799541 1.5477952 -0.4267528 -1.2818303 -1.1286948 1.8797449
-0.10175218 2.1420617 0.71734375 0.1469369 1.1769197 -0.5953955 1.3130702 2.2333727
-0.9186136 0.96285295 0.70102936 -2.5192611 1.7611914 -1.9148339 -2.5537655 2.6228573
0.25632632 1.5407078 0.16285807 -1.4457477 0.6558351 0.8570016 2.1011217 -3.9949594
0.51112306 1.4986145 -0.66196966 -1.223502 -1.9709985 0.06891186 -1.012609 1.0278703
0.93072534 0.924721 -0.0770806 -3.1503751 -1.1298842 2.226278 0.63818395 -0.18948738
0.22491841 0.8754859 2.0343235 -0.34678447 -0.77887565 2.4341466 -2.6101868 1.0409988
-2.2499948 -2.3804698 -0.83545655 -0.40070006 1.238622 2.7510848 -0.6269222 3.562968
1.161358 -0.6580057 -1.5676422 -0.74147624 -0.8116109 -1.4199561 1.7407168 -1.6861117
-0.5427247 -0.791014 2.2872267 3.0320592 1.654012 -1.0621684 1.8534342 -0.38681826
0.27712333 0.1472927 0.48787722 0.80178267 1.5369024 -3.9318767 -0.047334045 -1.5895928
1.4009907 0.19926986 -1.3260087 -0.6423718 -0.31158653 -1.0305895 2.4110806 -0.6690201
0.27248266 3.6469283 -0.45787245 -2.21865 -1.7652375 -0.987854 -0.16387756 -0.31539592
-1.4844483 0.7600932 1.4085904 3.4592812 1.9959695 -0.6523631 -1.5006669 -0.4903164
-0.8836786 0.6712093 -1.9019127 0.3478993 -3.7759438 1.4093456 -1.2243549 1.6859055
2.3980412 1.7060783 -1.0946242 -1.3176721 -0.030703986 -0.9204967 -1.818518 -0.3456138
5.0516343 -1.8166333 0.0688158 0.19177328 0.87266237 -2.2293425 1.1013163 2.2044551
-3.056695 0.8020032 0.8587402 0.64849436 -0.5709224 -2.111701 1.9314933 -0.3617209
-1.1013618 -1.2488705 -1.9599189 2.9461555 1.1685611 0.8487286 0.026349112 2.09793
2.778993 -3.6218817 -1.1878877 -1.7038518 0.14538057 -0.17181693 0.8913249 1.6573465
-1.0942172 2.8097863 0.5526325 -0.39283633 -0.41895553 -2.908292 -1.6446441 1.4236685
0.09546032 0.68442595 0.63992923 2.5754397 1.2952938 3.2107728 -1.1297312 0.19676286
00000000: b648 a3bf 5f33 dbbf daac 2fbf 5bf1 ecbe
00000010: 846b 2bbe 7ccc bf3e ea75 0ec0 7542 1a3f
00000020: 2386 0540 3f5a 32c0 4f21 353f 6454 dfbf
00000030: 7cc5 6e3f 7b45 3240 7a1c 3140 14c8 7e3f
00000040: ab0b c1bf ba56 f1bf 633c 963d 0e13 d73e
00000050: d869 9bbf f984 76c0 4f9f 2ebf b324 39bf
00000060: 8561 153d bf8c 0a40 1bb1 88be 66c7 c53f
00000070: 5731 823e 27d4 c9bf 1497 2040 0b7d 163f
00000080: 651c 2640 1c64 733e 5232 e4bf 0d74 e33e
00000090: 53f8 3ac0 3ab3 da3c 6ec2 2a3f f11f aabf
000000a0: 9c74 4fbe c861 b6bd 8d8b bc3e 3261 913f
000000b0: a76e d9bf 1f08 43c0 2b16 3fbe 95f5 1b40
000000c0: d5fb e1bf 6b70 c9bf cff1 673e a598 c0bf
000000d0: 130c b63f 40cc 3340 2295 0240 26da 69bf
000000e0: 4e8b c73e b8f8 1040 2239 08c0 b32b 3040
000000f0: 2ec3 9d3c dd32 a5bf 517c 12bd c49f b53d
00000100: b56e 633f 7341 5cbd b71f 903f f662 2d40
00000110: 7a4b 60bf 38ca 573f 65ff 993e 20d3 a9bf
00000120: 0a51 08be 9b47 62bf 058c 0c40 0e0a c63f
00000130: 6c13 3e3f 73e3 32c0 2c0d 9abe 3d37 6dbf
00000140: 3e7e f2be 319b ed3f d795 99c0 271e c63f
00000150: 587f dabe 0413 a4bf 1279 90bf 7b9b f03f
00000160: 7263 d0bd 8a17 0940 d7a3 373f a076 163e
00000170: 4ea5 963f d76b 18bf af12 a83f 94ef 0e40
00000180: 432a 6bbf 887d 763f a976 333f 933b 21c0
00000190: b86e e13f 4719 f5bf e570 23c0 e5dc 2740
000001a0: 343d 833e ea35 c53f 44c4 263e 430e b9bf
000001b0: cfe4 273f 7564 5b3f c778 0640 6aad 7fc0
000001c0: f6d8 023f 9ad2 bf3f d876 29bf b79b 9cbf
000001d0: ae49 fcbf a921 8d3d 2c9d 81bf 4191 833f
000001e0: 0444 6e3f 84ba 6c3f 6fdc 9dbd bf9f 49c0
000001f0: 0ca0 90bf 577b 0e40 0660 233f fb08 42be
00000200: 0351 663e d81f 603f 5b32 0240 bc8d b1be
00000210: 6564 47bf 0fc9 1b40 4d0d 27c0 733f 853f
00000220: eaff 0fc0 9e59 18c0 7be0 55bf 8f28 cdbe
00000230: 2a8b 9e3f c611 3040 f97d 20bf ab07 6440
00000240: 61a7 943f 1073 28bf 80a8 c8bf 63d1 3dbf
00000250: bbc5 4fbf 1fc1 b5bf cfcf de3f 82d2 d7bf
00000260: 02f0 0abf e57f 4abf ec61 1240 420d 4240
00000270: aab6 d33f 22f5 87bf 553d ed3f 0b0d c6be
00000280: 1ce3 8d3e e6d3 163e 0bcb f93e a141 4d3f
00000290: 38b9 c43f dea3 7bc0 58e1 41bd c777 cbbf
000002a0: aa53 b33f 660d 4c3e a7ba a9bf 7a72 24bf
000002b0: 4588 9fbe 5bea 83bf 254f 1a40 e744 2bbf
000002c0: d982 8b3e 4667 6940 426e eabe 5dfe 0dc0
000002d0: 4df3 e1bf 00e4 7cbf 85cf 27be 937b a1be
000002e0: 6702 bebf 7895 423f b14c b43f dd64 5d40
000002f0: ee7b ff3f 4501 27bf da15 c0bf c00a fbbe
00000300: c338 62bf 5fd4 2b3f e071 f3bf db1f b23e
00000310: 10a9 71c0 7065 b43f a9b7 9cbf c0cb d73f
00000320: 8279 1940 c660 da3f a51c 8cbf 7ba9 a8bf
00000330: ed86 fbbc aca5 6bbf 33c5 e8bf 4bf4 b0be
00000340: fda6 a140 7187 e8bf 4cef 8c3d 3760 443e
00000350: cd66 5f3f 8cad 0ec0 eff7 8c3f cb15 0d40
00000360: e4a0 43c0 1550 4d3f 66d6 5b3f ba03 263f
00000370: f827 12bf 1c26 07c0 2c3b f73f 7b33 b9be
00000380: 6cf9 8cbf fdda 9fbf 9fde fabf d08d 3c40
00000390: 6993 953f 4746 593f 18da d73c 7c44 0640
000003a0: 05db 3140 e9cc 67c0 b40c 98bf d117 dabf
000003b0: a5de 143e c7f0 2fbe de2d 643f ee23 d43f
000003c0: 4f0f 8cbf 8ad3 3340 5379 0d3f d821 c9be
000003d0: 5781 d6be 7521 3ac0 b383 d2bf c53a b63f
000003e0: b380 c33d 8a36 2f3f 67d2 233f 01d4 2440
000003f0: 30cc a53f 4d7d 4d40 089b 90bf 347c 493e

tabnet.encoder.initial_splitter.shared.glu_layers.1.bn.bn.weight f4 [32]
3.0551505 0.39202237 2.1972616 0.08649014 1.0118996 0.64854276 2.8654778 0.9691643
1.6389478 3.4423141 0.6328828 0.76873064 1.3679596 1.7154392 2.5109847 1.1480502
2.6736872 -0.15551893 3.8281426 1.538029 -0.64429843 0.5555917 6.3154387 2.9069567
4.899017 3.3636534 0.027073925 -0.57166564 0.6890521 1.5777311 3.8807704 5.0577264
00000000: 9687 4340 28b7 c83e ef9f 0c40 be21 b13d
00000010: ed85 813f e606 263f fd63 3740 271b 783f
00000020: 0bc9 d13f e04e 5c40 9b04 223f 88cb 443f
00000030: 4d19 af3f 8393 db3f f9b3 2040 4ff3 923f
00000040: b11d 2b40 5b40 1fbe 4a00 7540 22de c43f
00000050: bef0 24bf 423b 0e3f 1318 ca40 940b 3a40
00000060: bfc4 9c40 1946 5740 23ca dd3c ae58 12bf
00000070: b865 303f 18f3 c93f 8b5e 7840 e5d8 a140

tabnet.encoder.initial_splitter.shared.glu_layers.1.bn.bn.bias f4 [32]
0.5933167 -0.5089858 -0.77108186 -1.8307141 -0.73380905 0.081938066 2.3537974 0.73081493
-2.2187555 0.6714882 0.86274594 -1.0705703 -0.7682048 -0.5025134 -0.7633234 -3.0257554
-0.37004846 0.02445597 -1.7234744 -1.3905307 0.2397334 -1.5798317 -0.49759048 1.3643475
-1.626111 -1.0250309 -0.13450056 0.587365 0.59647244 0.14851835 -0.47195172 -0.6436784
00000000: 9ae3 173f e54c 02bf 9f65 45bf d754 eabf
00000010: e9da 3bbf 25cf a73d 9ea4 1640 b016 3b3f
00000020: 1700 0ec0 a7e6 2b3f ebdc 5c3f 7308 89bf
00000030: 12a9 44bf b8a4 00bf 2a69 43bf faa5 41c0
00000040: fe76 bdbe e357 c83c cf9a dcbf e9fc b1bf
00000050: ac7c 753e ed37 cabf 2ec4 febe f0a2 ae3f
00000060: 6824 d0bf 3634 83bf 84ba 09be 8d5d 163f
00000070: 6bb2 183f 3215 183e a8a3 f1be 1cc8 24bf

tabnet.encoder.initial_splitter.shared.glu_layers.1.bn.bn.running_mean f4 [32]
11.103184 8.495432 2.0991147 -3.966735 -1.7977835 10.434002 3.3889947 2.8893209
-2.8523123 7.121825 7.5042524 -3.769337 -2.5737712 3.7921822 7.120914 1.9720546
4.937179 -10.971044 -13.83703 6.4069138 1.9087607 -3.7679982 10.659584 9.458667
-2.8826008 3.083932 10.238007 -6.497274 12.637863 1.460916 -8.870824 -4.5835047
00000000: a4a6 3141 4aed 0741 e557 0640 fcde 7dc0
00000010: c51d e6bf acf1 2641 4ae5 5840 a2ea 3840
00000020: 498c 36c0 fee5 e340 d622 f040 d13c 71c0
00000030: abb8 24c0 1db3 7240 87de e340 496c fc3f
00000040: 5ffd 9d40 6589 2fc1 7a64 5dc1 7005 cd40
00000050: 4552 f43f e226 71c0 a88d 2a41 b356 1741
00000060: 887c 38c0 245f 4540 e0ce 2341 abe9 cfc0
00000070: b034 4a41 4cff ba3f e5ee 0dc1 12ac 92c0

tabnet.encoder.initial_splitter.shared.glu_layers.1.bn.bn.running_var f4 [32]
263.22934 95.50063 263.00003 286.7277 166.01334 145.91211 248.42769 337.09436
167.80293 317.61215 62.196873 303.21207 133.6409 115.989555 172.66196 186.45757
172.09218 271.48004 159.54306 317.02997 104.625565 184.71611 218.1026 172.36858
180.02448 203.44244 71.799484 67.194664 124.517525 92.73228 277.82263 229.73302
00000000: 5b9d 8343 5300 bf42 0180 8343 255d 8f43
00000010: 6a03 2643 80e9 1143 7d6d 7843 148c a843
00000020: 8dcd 2743 5bce 9e43 99c9 7842 259b 9743
00000030: 12a4 0543 a7fa e742 76a9 2c43 2375 3a43
00000040: 9917 2c43 72bd 8743 068b 1f43 d683 9e43
00000050: 4a40 d142 53b7 3843 441a 5a43 5b5e 2c43
00000060: 4406 3443 4471 4b43 5699 8f42 ab63 8642
00000070: f908 f942 ed76 b942 4ce9 8a43 a7bb 6543

tabnet.encoder.initial_splitter.specifics.glu_layers.0.fc.weight f4 [32, 16]
-1.7451667 0.25806987 1.0127256 1.2762879 1.6885837 -2.484032 2.6297846 -1.4824525
-1.4303495 -1.4926631 1.2558988 -2.1095183 -1.7627591 -2.6590433 2.143768 0.07898477
1.2684153 -0.113337904 -0.5884584 -0.33418316 0.24766767 -0.19351406 0.6640693 0.33138978
0.42005724 -1.2885473 0.94906855 -0.702837 -0.17368464 -0.88285065 0.64224803 -0.18914035
1.5221275 -1.5125285 -1.2523121 0.93743706 -2.938504 0.31666726 1.5140667 1.1783701
1.6938461 -0.9305017 -0.51213807 -4.098948 0.0591454 1.0545555 0.46490443 0.50904036
0.47918296 -0.82057315 -0.14202419 -0.2591376 -1.1982383 -0.053776547 0.082656056 -1.2042012
-1.2871181 1.6478511 -0.2706399 1.7459681 0.28275248 0.111947365 -0.84499776 -1.104011
-1.1873132 -0.108388014 -1.8998209 0.9789051 0.8276935 0.55507433 -2.4693656 -1.0281103
-0.95644325 -0.003534692 1.0038878 2.9433453 0.8570797 -1.4198078 -0.13864112 -0.29029846
-0.80442774 -0.6240811 0.650429 -2.8806489 0.996556 1.7482853 1.1588055 0.94416827
0.5629301 0.44547567 -0.32145593 0.22483216 1.6454239 0.5888576 -3.5794606 -0.98326504
0.47817308 -0.3299523 0.20707865 0.7225707 0.370297 0.030274684 1.3266453 -1.4027281
0.48855138 1.6524119 -0.656119 1.8154761 0.41507545 0.57174456 0.1932628 -0.19712414
-1.3688166 -0.35602462 -0.32824352 -0.19428802 0.072932415 0.3380318 0.93310577 -1.6463568
-0.033518113 1.060347 0.23211588 0.0751617 -0.16891617 -0.7235073 -0.85029227 0.14388667
-2.0400162 1.395416 -0.9083568 0.4725234 1.7507819 -0.49416596 0.063299075 -2.936425
0.017611029 2.9639397 -0.20419706 1.2263104 0.5167422 -2.1043763 -1.7368124 -2.1052701
-0.8315191 -0.74361527 -0.36189404 0.7660476 0.35818082 -0.9614661 1.4575865 -1.2255561
0.021938222 0.35239854 -0.1991193 2.9253154 -1.663463 0.17896451 -1.708382 -0.2585089
1.3574468 -0.9021661 -2.1775274 -0.39557588 0.06969122 1.71173 1.0754335 0.6272758
1.1178893 -2.1108634 -0.9142876 -1.0708219 1.9336407 1.707113 0.29140854 0.6557934
0.031258956 -0.93751585 1.2457479 1.9231809 1.3851995 -0.5063915 0.0080332225 -0.98442656
-1.9407344 1.4642551 -0.812264 2.2762625 -0.37870404 0.7328842 -1.3610684 -0.2215568
-0.5590772 0.09160727 -2.4737718 -1.4852774 0.123085976 1.7189475 -3.347406 0.26379415
0.74370795 0.7453065 -0.89941114 -0.97410655 -0.4345027 -1.5682043 0.1622101 1.8377051
0.21557827 1.1830077 1.2999734 1.0607284 0.4736603 -0.13263303 0.116232075 -2.9512043
-0.8163813 0.14580813 -0.68375283 0.7389335 0.12138761 -2.575917 -0.7535232 -0.8392588
1.0555371 -0.012085453 0.29633588 2.0944395 -1.2843981 -0.8534655 -4.3703523 1.7742418
1.1704171 -0.030096859 0.52942264 0.9803749 0.5191825 -0.53015924 0.64986515 3.6223612
-2.7938704 -0.0037567557 -1.7378818 -0.19661294 -0.6195952 -0.81173176 -2.5468905 -1.0571669
-0.051600337 1.7956778 -0.14971009 -0.80297446 -0.52691704 -2.1433194 -2.086727 -1.1056292
00000000: 9f61 dfbf bc21 843e fea0 813f 675d a33f
00000010: 8323 d83f 61fa 1ec0 644e 2840 01c1 bdbf
00000020: b115 b7bf 960f bfbf 4bc1 a03f 5902 07c0
00000030: 17a2 e1bf c42d 2ac0 7f33 0940 c4c2 a13d
00000040: 6f5b a23f b41d e8bd 36a5 16bf 0e1a abbe
00000050: 989c 7d3e 8d28 46be 7200 2a3f ecab a93e
00000060: be11 d73e 1eef a4bf 28f6 723f 20ed 33bf
00000070: 63da 31be 8002 62bf 5e6a 243f 02ae 41be
00000080: 13d5 c23f 899a c1bf c34b a0bf e0fb 6f3f
00000090: 7310 3cc0 3622 a23e f0cc c13f d5d4 963f
000000a0: f3cf d83f 5c35 6ebf 7b1b 03bf 952a 83c0
000000b0: 7242 723d adfb 863f f407 ee3e 7850 023f
000000c0: 7857 f53e 1511 52bf ca6e 11be afad 84be
000000d0: df5f 99bf cc44 5cbd 9447 a93d 4423 9abf
000000e0: 49c0 a4bf c9ec d23f 5091 8abe e27b df3f
000000f0: efc4 903e a944 e53d c651 58bf 3c50 8dbf
00000100: e1f9 97bf 89fa ddbd 552d f3bf 8699 7a3f
00000110: b9e3 533f 5a19 0e3f 160a 1ec0 1e99 83bf
00000120: 77d9 74bf 4ba6 67bb 657f 803f c55f 3c40
00000130: 9369 5b3f 43bc b5bf f0f7 0dbe 00a2 94be
00000140: faee 4dbf c7c3 1fbf 8482 263f 8d5c 38c0
00000150: 4b1e 7f3f d0c7 df3f bd53 943f 03b5 713f
00000160: 301c 103f 6315 e43e df95 a4be 673a 663e
00000170: 409d d23f 5fbf 163f e215 65c0 42b7 7bbf
00000180: 1ad3 f43e 82ef a8be 6d0c 543e 65fa 383f
00000190: 9297 bd3e 9d02 f83c 83cf a93f 988c b3bf
000001a0: 6823 fa3e 3c82 d33f 6af7 27bf 8561 e83f
000001b0: c584 d43e da5d 123f afe6 453e e9da 49be
000001c0: 6235 afbf dc48 b6be 890f a8be 70f3 46be
000001d0: 975d 953d 8112 ad3e 05e0 6e3f d2bb d2bf
000001e0: 4a4a 09bd 73b9 873f c9af 6d3e 61ee 993d
000001f0: 5cf8 2cbe c637 39bf c1ac 59bf 0757 133e
00000200: a08f 02c0 fe9c b23f 128a 68bf 96ee f13e
00000210: 9f19 e03f 5203 fdbe f2a2 813d 63ee 3bc0
00000220: 0145 903c 30b1 3d40 0919 51be bdf7 9c3f
00000230: 3849 043f 1aae 06c0 de4f debf bfbc 06c0
00000240: 70de 54bf 925d 3ebf 2d4a b9be b21b 443f
00000250: 7a63 b73e a422 76bf 3292 ba3f 06df 9cbf
00000260: c9b7 b33c 956d b43e eee5 4bbe 5e38 3b40
00000270: 5bec d4bf 7942 373e 43ac dabf 475b 84be
00000280: d1c0 ad3f 5cf4 66bf 9c5c 0bc0 ec88 cabe
00000290: 45ba 8e3d f819 db3f cea7 893f 2695 203f
000002a0: ff16 8f3f 6318 07c0 c10e 6abf b110 89bf
000002b0: 8a81 f73f ae82 da3f 8033 953e 14e2 273f
000002c0: 6409 003d 0a01 70bf ab74 9f3f cb2a f63f
000002d0: 384e b13f e0a2 01bf c79d 033c 6103 7cbf
000002e0: fc69 f8bf b66c bb3f 89f0 4fbf 49ae 1140
000002f0: 7fe5 c1be 4d9e 3b3f 7d37 aebf c9df 62be
00000300: af1f 0fbf 989c bb3d 4752 1ec0 921d bebf
00000310: 8014 fc3d 7906 dc3f e63b 56c0 0710 873e
00000320: a563 3e3f 68cc 3e3f cf3f 66bf 0c5f 79bf
00000330: 2377 debe ebba c8bf 681a 263e ec39 eb3f
00000340: 8dc0 5c3e cc6c 973f 8765 a63f f3c5 873f
00000350: 9a83 f23e f4d0 07be 150b ee3d 88e0 3cc0
00000360: 5dfe 50bf ba4e 153e 6d0a 2fbf bf2a 3d3f
00000370: 119a f83d d3db 24c0 e5e6 40bf aad9 56bf
00000380: d71b 873f 1002 46bc 56b9 973e 4c0b 0640
00000390: 2867 a4bf b77c 5abf edd9 8bc0 5b1a e33f
000003a0: 3ad0 953f b08d f6bc 3e88 073f d9f9 7a3f
000003b0: 25e9 043f 84b8 07bf 905d 263f c4d4 6740
000003c0: c6ce 32c0 e733 76bb e972 debf e754 49be
000003d0: cb9d 1ebf a7cd 4fbf 4100 23c0 3f51 87bf
000003e0: e05a 53bd c5d8 e53f 9a4d 19be bc8f 4dbf
000003f0: 09e4 06bf 252c 09c0 ef8c 05c0 4285 8dbf

tabnet.encoder.initial_splitter.specifics.glu_layers.0.bn.bn.weight f4 [32]
1.5315839 -0.07815092 2.3667397 0.7813822 0.95484227 2.9988194 -0.038687453 0.05529788
2.0202558 0.63036567 1.2672478 1.3988104 1.0858206 0.89148575 1.0953707 2.3645885
2.1315417 -0.41660762 2.3198347 0.60158956 1.2722025 1.9969734 -0.0075135203 0.33859998
2.6144552 -0.66869587 1.7319694 1.3554964 0.9310276 0.31717157 1.8153127 4.332679
00000000: f10a c43f 970d a0bd aa78 1740 aa08 483f
00000010: 8b70 743f a8ec 3f40 bc76 1ebd 0880 623d
00000020: df4b 0140 a55f 213f 2d35 a23f 380c b33f
00000030: 2bfc 8a3f 6938 643f 1b35 8c3f 6b55 1740
00000040: 2e6b 0840 984d d5be 2c78 1440 c601 1a3f
00000050: 88d7 a23f d39c ff3f fa33 f6bb fa5c ad3e
00000060: 3c53 2740 a72f 2bbf 2cb1 dd3f e880 ad3f
00000070: d357 6e3f 5064 a23e 2b5c e83f 4ea5 8a40

tabnet.encoder.initial_splitter.specifics.glu_layers.0.bn.bn.bias f4 [32]
0.011008699 0.049125608 -1.4176651 -0.11219469 -0.71182513 -0.14100449 -0.005978668 -0.3248901
1.4035255 -0.51170254 -0.4276376 -0.4887712 -0.008037735 -0.08612792 0.12116175 -1.7646226
0.6509374 -1.5505753 -0.29090863 -1.236817 -0.012887625 -2.5147269 -2.3445468 -1.9609903
-1.7369535 -0.5131166 -1.4001867 -2.2954457 0.47447282 -0.015132246 -1.0611184 0.94567734
00000000: d55d 343c ef37 493d 0d76 b5bf 54c6 e5bd
00000010: 2c3a 36bf 7b63 10be b4e8 c3bb ff57 a6be
00000020: b9a6 b33f f0fe 02bf 51f3 dabe 3840 fabe
00000030: b4b0 03bc d663 b0bd a723 f83d 27df e1bf
00000040: d5a3 263f 4079 c6bf faf1 94be 0550 9ebf
00000050: 9e26 53bc 49f1 20c0 0e0d 16c0 bb01 fbbf
00000060: 7e54 debf 9c5b 03bf 5139 b3bf 95e8 12c0
00000070: 1aee f23e 3ded 77bc bad2 87bf e917 723f

tabnet.encoder.initial_splitter.specifics.glu_layers.0.bn.bn.running_mean f4 [32]
2.4383817 1.2530653 3.632986 1.361973 -0.6977478 -7.0885844 1.8185554 -0.4596773
-0.28238344 0.5032274 -0.21139887 -1.8642648 -0.63801986 -3.749564 -2.6733086 -0.7318678
-5.297787 -2.3898623 -4.550958 2.6489382 -1.5591346 -11.483944 -1.7747507 1.6546291
1.9600959 -0.29025254 0.006054332 1.2552652 3.3274913 3.461365 1.0954369 -3.1526554
00000000: 720e 1c40 7264 a03f d882 6840 2255 ae3f
00000010: 9a9f 32bf afd5 e2c0 6cc6 e83f d35a ebbe
00000020: 9094 90be 83d3 003f f278 58be 3ba0 eebf
00000030: 4555 23bf dbf8 6fc0 7d17 2bc0 b05b 3bbf
00000040: 7987 a9c0 81f3 18c0 73a1 91c0 3488 2940
00000050: b991 c7bf 3cbe 37c1 082b e3bf e3ca d33f
00000060: 6ce4 fa3f fb9b 94be 6b63 c63b 88ac a03f
00000070: 9ef5 5440 0187 5d40 4737 8c3f 1bc5 49c0

tabnet.encoder.initial_splitter.specifics.glu_layers.0.bn.bn.running_var f4 [32]
152.42441 45.013027 466.75162 120.22865 218.54358 69.98537 113.46574 46.349983
381.76086 223.60847 160.51721 196.35895 153.7394 98.57389 153.43626 197.06496
219.90494 19.63101 409.69156 39.991695 89.91118 167.01988 23.675945 78.64553
733.1513 128.34865 128.65814 170.85754 99.623985 102.81013 114.56765 135.75255
00000000: a66c 1843 570d 3442 3560 e943 1275 f042
00000010: 288b 5a43 82f8 8b42 75ee e242 6266 3942
00000020: 64e1 be43 c59b 5f43 6884 2043 e45b 4443
00000030: 49bd 1943 d525 c542 af6f 1943 a110 4543
00000040: aae7 5b43 4f0c 9d41 85d8 cc43 7ff7 1f42
00000050: 86d2 b342 1705 2743 5668 bd41 834a 9d42
00000060: af49 3744 4159 0043 7ca8 0043 88db 2a43
00000070: 7b3f c742 c99e cd42 a322 e542 a7c0 0743

tabnet.encoder.initial_splitter.specifics.glu_layers.1.fc.weight f4 [32, 16]
-0.20283015 0.975293 1.1894886 0.71780515 -0.9233267 0.13197494 -0.75037014 1.4079869
-0.09993613 0.052304033 0.724885 0.020830493 -0.12022985 -1.0299064 0.33013144 -0.4618243
0.29171994 0.351183 1.704462 -0.63410354 -0.3009121 0.029148715 -0.38447568 0.70031226
-0.6652928 0.8936105 0.32878786 -0.99823123 0.7557741 1.9987946 -0.27732286 0.8177302
-0.99615794 0.6728537 -0.62734824 0.008135804 0.6014706 0.6607857 0.2746957 1.9359097
1.4133143 -0.39300397 0.14750734 -1.5814095 -0.8110007 0.6840142 0.47635177 0.06781487
0.5819973 1.4650099 0.27633047 0.5396574 -0.2913137 -0.98092043 -0.38765398 -0.24742149
1.2774628 -0.7161727 0.55253077 0.057350487 0.8896481 -0.70989716 -0.9090342 -0.66530025
0.12663902 0.18853055 -0.12202648 0.19768737 -0.2451182 -0.41334093 0.5464916 -0.13261604
0.4691789 0.5768686 0.5571077 0.50906867 0.14853929 -0.86679393 0.37311986 0.03657742
0.5696153 -0.08550161 -0.39773327 0.57430416 0.7490636 0.38695014 0.8979031 1.6960224
-0.34023273 0.52239263 -0.57829666 0.09985264 -0.4058655 0.004176194 0.3117569 0.5650713
0.16621816 0.013187363 0.03317135 -0.78926414 -0.035746712 -0.58385104 -0.43563795 0.23837513
0.09325438 -0.9156943 0.67633075 0.5863342 -0.7948798 0.57533586 0.44152048 0.4129412
-0.20760296 0.2554354 -0.5228223 -1.2802938 0.62365216 -0.72085285 0.12881076 -0.6881227
0.17843701 1.1321496 0.4651437 -0.21218489 0.6101537 -0.4150288 -0.18228531 -0.491894
-2.6498432 0.64278924 -1.7474054 0.54773384 0.6737434 -0.433438 -0.3065542 -0.6322751
-0.49211675 3.7391493 0.83075404 3.5704935 0.2860884 -0.046632778 -1.5060863 -0.42355523
1.1810855 0.0031401773 0.0687915 0.79404515 0.03727746 -3.660333 2.2807703 -2.381952
0.40911523 -1.2388922 0.24806106 0.02275783 -0.33613724 -2.0814335 0.31776416 1.3694462
-1.6999729 0.40940458 0.28492773 -0.056975305 -0.8092904 0.9909709 1.0799677 -0.22000302
-0.28757843 -1.0542456 0.55663866 -1.7016011 -2.0036027 0.23589009 -1.531529 -1.4177539
0.31101668 0.24585539 1.4260435 -1.2321355 1.2317684 2.6201122 0.33358112 1.8699386
-0.21977492 -1.8933053 0.49883154 -1.3928609 0.16472861 -0.4315386 0.25653067 -0.15780345
-0.83675325 0.098337695 -1.5142926 -0.86366636 0.75371057 0.05515525 -2.0141025 0.8045625
1.0862693 0.25899348 -0.30491272 -1.1024249 1.9387137 -1.6852492 1.0343062 2.6438854
0.67840266 -0.58239853 -1.1287328 2.1473436 -0.13014494 -3.0752208 0.5703964 -2.9546125
-0.26095858 1.1463253 -0.63848287 2.9106176 -0.58495814 -1.7033408 1.1699002 1.2049701
0.34741113 1.3625449 -1.1893051 0.3815392 1.1275498 -1.9752549 -2.3805802 -0.85605884
-0.769091 2.6649547 0.37873366 3.957956 -0.45600438 -1.7155201 -0.26837137 1.7308217
-2.8056808 0.26919875 -1.3046314 0.2094221 0.7463692 0.27578792 -1.1566932 -0.36346608
2.1556804 2.337784 -0.1170301 2.3406568 -1.3226781 1.108967 -2.276034 -1.5867648
00000000: b5b2 4fbe cdac 793f 2a41 983f 14c2 373f
00000010: 235f 6cbf 7024 073e 4218 40bf ea38 b43f
00000020: 50ab ccbd c13c 563d 1092 393f b6a4 aa3c
00000030: 113b f6bd f9d3 83bf fd06 a93e 3c74 ecbe
00000040: 515c 953e 42ce b33e d02b da3f 9c54 22bf
00000050: 2711 9abe 49c9 ee3c ffd9 c4be aa47 333f
00000060: a150 2abf a8c3 643f e256 a83e 158c 7fbf
00000070: 697a 413f 80d8 ff3f 43fd 8dbe c456 513f
00000080: 3504 7fbf 2440 2c3f e599 20bf 094c 053c
00000090: faf9 193f 4029 293f eaa4 8c3e e4cb f73f
000000a0: 7ce7 b43f d137 c9be 2a0c 173e a06b cabf
000000b0: be9d 4fbf 8e1b 2f3f 61e4 f33e 86e2 8a3d
000000c0: c6fd 143f 7285 bb3f 307b 8d3e fd26 0a3f
000000d0: 1227 95be 9a1d 7bbf 957a c6be 0f5c 7dbe
000000e0: e783 a33f 1857 37bf a872 0d3f 58e8 6a3d
000000f0: fabf 633f d2bb 35bf 77b6 68bf 1e51 2abf
00000100: a9ad 013e 270e 413e 05e9 f9bd 8f6e 4a3e
00000110: 4400 7bbe 6ca1 d3be e0e6 0b3f 80cc 07be
00000120: 3738 f03e a9ad 133f 9c9e 0e3f 5352 023f
00000130: af1a 183e 35e6 5dbf 9109 bf3e 34d2 153d
00000140: 4fd2 113f 781b afbd b2a3 cbbe 9905 133f
00000150: a2c2 3f3f 541e c63e fadc 653f 4317 d93f
00000160: fc32 aebe 86bb 053f 400b 14bf 8a7f cc3d
00000170: 9acd cfbe 74d8 883b 9a9e 9f3e 83a8 103f
00000180: 1835 2a3e cf0f 583c aede 073d 370d 4abf
00000190: 256b 12bd 4377 15bf f00b dfbe 9c18 743e
000001a0: 27fc be3d f16a 6abf 0324 2d3f 001a 163f
000001b0: 3e7d 4bbf 3649 133f f90e e23e 076d d33e
000001c0: df95 54be 6ec8 823e afd7 05bf abe0 a3bf
000001d0: aba7 1f3f d089 38bf f8e6 033e cf28 30bf
000001e0: 31b8 363e 47ea 903f 5127 ee3e ff46 59be
000001f0: 0833 1c3f a87e d4be 00a9 3abe 88d9 fbbe
00000200: 0897 29c0 d68d 243f fbaa dfbf 4938 0c3f
00000210: 737a 2c3f 96eb ddbe acf4 9cbe c8dc 21bf
00000220: baf6 fbbe 394e 6f40 4cac 543f f782 6440
00000230: 2e7a 923e 0302 3fbd 70c7 c0bf 3bdc d8be
00000240: cf2d 973f 6fcb 4d3b 8fe2 8c3d 8b46 4b3f
00000250: 40b0 183d e542 6ac0 24f8 1140 e771 18c0
00000260: 8d77 d13e 0594 9ebf b803 7e3e a16e ba3c
00000270: 2e1a acbe 3536 05c0 fcb1 a23e 034a af3f
00000280: b698 d9bf 7a9d d13e 0ce2 913e f05e 69bd
00000290: a82d 4fbf 45b0 7d3f 623c 8a3f 7948 61be
000002a0: 7b3d 93be 85f1 86bf df7f 0e3f 11ce d9bf
000002b0: 073b 00c0 2c8d 713e 2409 c4bf f678 b5bf
000002c0: 943d 9f3e 84c1 7b3e 9888 b63f 9eb6 9dbf
000002d0: 96aa 9d3f ebaf 2740 25cb aa3e 265a ef3f
000002e0: ad0c 61be d457 f2bf d966 ff3e 4449 b2bf
000002f0: 9eae 283e a1f2 dcbe fd57 833e 3a97 21be
00000300: 7635 56bf 4665 c93d 57d4 c1bf 3d19 5dbf
00000310: 2df3 403f 79ea 613d 0ee7 00c0 cff7 4d3f
00000320: df0a 8b3f cb9a 843e 851d 9cbe 421c 8dbf
00000330: c527 f83f 3fb6 d7bf 2564 843f 6b35 2940
00000340: ccab 2d3f 1218 15bf 517a 90bf 146e 0940
00000350: b744 05be 6bd0 44c0 8005 123f 5f18 3dc0
00000360: 5d9c 85be caba 923f 9d73 23bf 8f47 3a40
00000370: d1bf 15bf 1207 dabf 4abf 953f 763c 9a3f
00000380: dfdf b13e df67 ae3f 263b 98bf 1b59 c33e
00000390: 8d53 903f 27d5 fcbf 6d5b 18c0 ac26 5bbf
000003a0: 26e3 44bf 9e8e 2a40 61e9 c13e 274f 7d40
000003b0: 6879 e9be 2a96 dbbf f967 89be 918b dd3f
000003c0: 4690 33c0 6bd4 893e 29fe a6bf bf72 563e
000003d0: 0d12 3f3f 1334 8d3e 860e 94bf 3a18 babe
000003e0: abf6 0940 419e 1540 7aad efbd 52cd 1540
000003f0: 844d a9bf a1f2 8d3f 8baa 11c0 1c1b cbbf

tabnet.encoder.initial_splitter.specifics.glu_layers.1.bn.bn.weight f4 [32]
1.0 1.0 1.0 1.0 1.0 1.0 1.0 1.0
1.6512984 1.6419488 0.71859145 -0.2929259 0.49850625 1.5728016 1.7481245 2.655068
1.0 1.0 1.0 1.0 1.0 1.0 1.0 1.0
2.6346269 1.288075 1.1270574 -0.5938483 -0.109276205 1.2715986 1.7533977 3.2520432
00000000: 0000 803f 0000 803f 0000 803f 0000 803f
00000010: 0000 803f 0000 803f 0000 803f 0000 803f
00000020: bf5d d33f 612b d23f 9cf5 373f 62fa 95be
00000030: 363c ff3e 9051 c93f 8bc2 df3f a2ec 2940
00000040: 0000 803f 0000 803f 0000 803f 0000 803f
00000050: 0000 803f 0000 803f 0000 803f 0000 803f
00000060: ba9d 2840 a4df a43f 6b43 903f 7106 18bf
00000070: 34cc dfbd bec3 a23f 566f e03f 7a21 5040

tabnet.encoder.initial_splitter.specifics.glu_layers.1.bn.bn.bias f4 [32]
0.0 0.0 0.0 0.0 0.0 0.0 0.0 0.0
0.41738886 -0.07802109 0.060647726 -0.96398264 0.03813467 1.1564184 1.0698291 0.29558697
0.0 0.0 0.0 0.0 0.0 0.0 0.0 0.0
-0.75530565 -1.9017471 -0.88809735 -1.5895374 0.49337316 1.7652751 1.5522858 0.39938912
00000000: 0000 0000 0000 0000 0000 0000 0000 0000
00000010: 0000 0000 0000 0000 0000 0000 0000 0000
00000020: feb3 d53e 85c9 9fbd c069 783d 91c7 76bf
00000030: 1a33 1c3d 8505 943f 29f0 883f 2d57 973e
00000040: 0000 0000 0000 0000 0000 0000 0000 0000
00000050: 0000 0000 0000 0000 0000 0000 0000 0000
00000060: b65b 41bf 736c f3bf 595a 63bf f675 cbbf
00000070: 689b fc3e 89f4 e13f 4db1 c63f bb7c cc3e

tabnet.encoder.initial_splitter.specifics.glu_layers.1.bn.bn.running_mean f4 [32]
-0.9726172 -4.6740823 3.3083222 -0.48358387 1.1945242 0.5999887 -0.18517587 1.5136725
2.6579309 -1.8765197 1.4629564 -3.444088 -2.0887427 1.4405383 -2.3054662 5.1829576
-0.20183048 -2.8189044 3.3316123 -0.59890795 0.78630894 -1.7339872 0.5246573 -1.5758438
-0.2281364 5.2256603 3.1137965 0.048855588 3.7230587 5.0898867 1.1920214 -3.3494332
00000000: 71fd 78bf 1592 95c0 8dbb 5340 4e98 f7be
00000010: 2be6 983f dc98 193f be9e 3dbe 05c0 c13f
00000020: 8a1b 2a40 cc31 f0bf 2842 bb3f f06b 5cc0
00000030: f6ad 05c0 8f63 b83f c28c 13c0 cada a540
00000040: a6ac 4ebe ee68 34c0 2339 5540 0852 19bf
00000050: 8b4b 493f 4bf3 ddbf f14f 063f 40b5 c9bf
00000060: 979c 69be 9c38 a740 7148 4740 cc1c 483d
00000070: 9846 6e40 5ae0 a240 2894 983f 1d5d 56c0

tabnet.encoder.initial_splitter.specifics.glu_layers.1.bn.bn.running_var f4 [32]
10.823541 25.859571 10.729684 2.1585312 6.005076 2.756987 3.320586 7.487655
429.04147 42.318478 73.222534 85.7343 180.03055 151.7157 306.8346 361.5253
14.416486 3.720729 12.168558 3.665756 11.989026 12.492064 5.5156355 11.487841
359.03693 82.589676 59.16283 127.21101 81.79267 120.62616 242.50732 169.4319
00000000: 392d 2d41 67e0 ce41 c9ac 2b41 6025 0a40
00000010: 9529 c040 7a72 3040 7b84 5440 df9a ef40
00000020: 4f85 d643 1f46 2942 f071 9242 f677 ab42
00000030: d207 3443 38b7 1743 d46a 9943 3dc3 b443
00000040: eda9 6641 6d20 6e40 6ab2 4241 bf9b 6a40
00000050: 0dd3 3f41 7fdf 4741 1680 b040 32ce 3741
00000060: ba84 b343 ea2d a542 bda6 6c42 0a6c fe42
00000070: d995 a342 9840 f142 e081 7243 916e 2943
